…
    "model = models.load_model(base_dir+\"\\\\minst.h5\")\n",
    "test_loss, test_acc = model.evaluate(test_images, test_labels)\n",
    "print('Test accuracy is {}%'.format(round(test_acc*100,2)))"
   ]
  },
  {
   "cell_type": "code",
   "execution_count": 5,
   "metadata": {},
   "outputs": [
    {
     "name": "stdout",
     "output_type": "stream",
     "text": [
      "_________________________________________________________________\n",
      "Layer (type)                 Output Shape              Param #   \n",
      "=================================================================\n",
      "conv2d_4 (Conv2D)            (None, 26, 26, 32)        320       \n",
      "_________________________________________________________________\n",
      "max_pooling2d_3 (MaxPooling2 (None, 13, 13, 32)        0         \n",
      "_________________________________________________________________\n",
      "conv2d_5 (Conv2D)            (None, 11, 11, 64)        18496     \n",
      "_________________________________________________________________\n",
      "max_pooling2d_4 (MaxPooling2 (None, 5, 5, 64)          0         \n",
      "_________________________________________________________________\n",
      "conv2d_6 (Conv2D)            (None, 3, 3, 64)          36928     \n",
      "_________________________________________________________________\n",
      "flatten_2 (Flatten)          (None, 576)               0         \n",
      "_________________________________________________________________\n",
      "dense_3 (Dense)              (None, 64)                36928     \n",
      "_________________________________________________________________\n",
      "dense_4 (Dense)              (None, 10)                650       \n",
      "=================================================================\n",
      "Total params: 93,322\n",
      "Trainable params: 93,322\n",
      "Non-trainable params: 0\n",
      "_________________________________________________________________\n"
     ]
    }
   ],
   "source": [
    "model.summary()"
   ]
  },
  {
   "cell_type": "markdown",
   "metadata": {},
   "source": [
    "### Convolution\n",
…
    "As a practical example, we will focus on classifying images as \"dogs\" or \"cats\", in a dataset containing 4000 pictures of cats and dogs (2000 cats, 2000 dogs). We will use 2000 pictures for training, 1000 for validation, and finally 1000 for testing.\n",
    "\n",
    "We build a model with the same general structure as the one for MINST."
   ]
  },
  {
   "cell_type": "code",
   "execution_count": 7,
   "metadata": {},
   "outputs": [
    {
     "name": "stdout",
     "output_type": "stream",
     "text": [
      "_________________________________________________________________\n",
      "Layer (type)                 Output Shape              Param #   \n",
      "=================================================================\n",
      "conv2d_1 (Conv2D)            (None, 148, 148, 32)      896       \n",
      "_________________________________________________________________\n",
      "max_pooling2d_1 (MaxPooling2 (None, 74, 74, 32)        0         \n",
      "_________________________________________________________________\n",
      "conv2d_2 (Conv2D)            (None, 72, 72, 64)        18496     \n",
      "_________________________________________________________________\n",
      "max_pooling2d_2 (MaxPooling2 (None, 36, 36, 64)        0         \n",
      "_________________________________________________________________\n",
      "conv2d_3 (Conv2D)            (None, 34, 34, 128)       73856     \n",
      "_________________________________________________________________\n",
      "max_pooling2d_3 (MaxPooling2 (None, 17, 17, 128)       0         \n",
      "_________________________________________________________________\n",
      "conv2d_4 (Conv2D)            (None, 15, 15, 128)       147584    \n",
      "_________________________________________________________________\n",
      "max_pooling2d_4 (MaxPooling2 (None, 7, 7, 128)         0         \n",
      "_________________________________________________________________\n",
      "flatten_1 (Flatten)          (None, 6272)              0         \n",
      "_________________________________________________________________\n",
      "dense_1 (Dense)              (None, 512)               3211776   \n",
      "_________________________________________________________________\n",
      "dense_2 (Dense)              (None, 1)                 513       \n",
      "=================================================================\n",
      "Total params: 3,453,121\n",
      "Trainable params: 3,453,121\n",
      "Non-trainable params: 0\n",
      "_________________________________________________________________\n"
     ]
    },
    {
     "data": {
      "text/html": [
       "\n",
       "        <a href=\"#\" onclick=\"code_toggle(this); return false;\">show code</a>\n",
…
